…
lenet = LeNet()
# m is the instance of nn.Layer, x is the intput of layer, y is the output of layer.
def count_leaky_relu(m, x, y):
    x = x[0]
    nelements = x.numel()
    m.total_ops += int(nelements)

FLOPs = paddle.flops(lenet, [1, 1, 28, 28], custom_ops= {nn.LeakyReLU: count_leaky_relu},
                    print_detail=True)
print(FLOPs)

#+--------------+-----------------+-----------------+--------+--------+
#|  Layer Name  |   Input Shape   |   Output Shape  | Params | Flops  |
#+--------------+-----------------+-----------------+--------+--------+
#|   conv2d_2   |  [1, 1, 28, 28] |  [1, 6, 28, 28] |   60   | 47040  |
#|   re_lu_2    |  [1, 6, 28, 28] |  [1, 6, 28, 28] |   0    |   0    |
#| max_pool2d_2 |  [1, 6, 28, 28] |  [1, 6, 14, 14] |   0    |   0    |
#|   conv2d_3   |  [1, 6, 14, 14] | [1, 16, 10, 10] |  2416  | 241600 |
#|   re_lu_3    | [1, 16, 10, 10] | [1, 16, 10, 10] |   0    |   0    |
#| max_pool2d_3 | [1, 16, 10, 10] |  [1, 16, 5, 5]  |   0    |   0    |
#|   linear_0   |     [1, 400]    |     [1, 120]    | 48120  | 48000  |
#|   linear_1   |     [1, 120]    |     [1, 84]     | 10164  | 10080  |
#|   linear_2   |     [1, 84]     |     [1, 10]     |  850   |  840   |
#+--------------+-----------------+-----------------+--------+--------+
#Total Flops: 347560     Total Params: 61610
import paddle

data1 = paddle.full(shape=[2,1], fill_value=0, dtype='int64')
#[[0]
# [0]]

# attr shape is a list which contains Tensor.
positive_2 = paddle.full([1], 2, "int32")
data3 = paddle.full(shape=[1, positive_2], dtype='float32', fill_value=1.5)
# [[1.5 1.5]]

…
